app/src/main/assets/sms_classifier.tflite (tflite, 376200 bytes, 4 tensors)

arith.constant3 f4 [1, 16]
000000 41 00 cc 3d 80 71 ee 3f f2 54 b4 bf 56 c5 cc be
       0.09960986 1.8628387 -1.4088423 -0.39994305
000010 fd f4 fa 3f 5c e9 70 bf e7 a9 85 bf a7 26 c2 3e
       1.9606014 -0.9410608 -1.0442475 0.37920114
000020 b5 44 7d bf 25 e1 80 3e ff c6 ba bf d8 b9 9d 3d
       -0.98932964 0.25171772 -1.4591979 0.077014625
000030 99 35 ae bf 2b 27 08 bf 18 5d 5e be 77 c6 ef 3e
       -1.3610107 -0.53184766 -0.217152 0.46831104

arith.constant4 f4 [16, 16]
000000 26 e9 23 3c f3 fc 1a bd 02 5f b1 3d 53 3e 0f bd
       0.010004317 -0.037838887 0.086606994 -0.034971546
000010 89 3e 85 3e 12 dd 31 3d 0e fa b8 be 17 62 d0 be
       0.26024273 0.04342372 -0.36128277 -0.40699837
000020 2c ab d2 bd 5a 48 d9 be b6 dc 72 be 5d 21 98 be
       -0.10286555 -0.42438012 -0.23717007 -0.29712954
000030 c8 a3 91 3e 66 72 c9 bd 3c f1 b7 bd 9f f5 fc 3d
       0.28445268 -0.09836273 -0.08981559 0.12351536
000040 71 41 7c 3e 1f 7b 28 3f 5b 86 a0 bf b6 45 8c bf
       0.24634339 0.6581287 -1.2541002 -1.0958774
000050 94 ff 36 bf 35 97 34 3e 0c d1 a4 3e af 07 d7 be
       -0.7148373 0.17635806 0.3219074 -0.4199805
000060 b9 3e 1e bf c3 55 a8 3f 92 45 df be 10 c1 b8 be
       -0.6181446 1.3151172 -0.43607765 -0.36084795
000070 9b 5d 6e bf c4 0a 28 bf d9 cf ba bf a8 4c 0d 3f
       -0.9311158 -0.6564143 -1.459468 0.55195093
000080 de 1d 65 be 18 f9 30 bf f6 20 f9 3f d3 35 b6 3f
       -0.22374675 -0.69130087 1.9463184 1.4235176
000090 2b 93 7c 3f 84 45 9b 3d 0a 0b c2 bd 70 63 cc 3e
       0.9866206 0.075816184 -0.09474762 0.39919615
0000a0 07 4e 38 3f e7 19 fa be 2e f0 09 3f 2a 1b de bc
       0.7199406 -0.48847887 0.5388211 -0.027112562
0000b0 5d 66 d0 3f de 00 46 3f b4 13 cb 3e cd a9 7a bf
       1.6281239 0.77345073 0.3966347 -0.97915345
0000c0 31 47 9c bd 5f c4 58 3e 4c ae e6 bd 17 99 e6 be
       -0.07630766 0.2116866 -0.11263713 -0.45038673
0000d0 3d 46 b9 be fe a9 23 be c6 4f 99 be 72 f5 92 be
       -0.361864 -0.15982816 -0.29943675 -0.28702885
0000e0 a1 3f df bc 80 d7 aa 3d 94 9b ae 3e 19 bb c1 be
       -0.02725202 0.083418846 0.34103072 -0.37838057
0000f0 66 7c 8d be 6c 91 87 bd 2c ca 46 bc 03 30 16 3e
       -0.2763397 -0.06619534 -0.0121331625 0.14666753
000100 6e a2 ee 3d 69 66 13 3f fd 43 bf bf 97 9c 8e bf
       0.11652075 0.5757814 -1.4942623 -1.1141537
000110 55 49 07 bf a5 c8 36 3e e2 dd 81 3e 10 05 09 bf
       -0.5284627 0.17849977 0.25364596 -0.5352335
000120 59 43 99 be af 23 88 3f 8e 67 90 be 4a dd a2 be
       -0.29934195 1.063589 -0.28204006 -0.31809455
000130 d3 b8 9c bf f1 1a 72 bf b1 a1 a3 bf d3 99 4f 3f
       -1.2243904 -0.9457236 -1.2783719 0.8109409
000140 49 b2 29 bf ec b8 ee be 83 ae b5 3f f4 1c 39 3f
       -0.66287667 -0.4662546 1.4193882 0.72309804
000150 ae 4e 9d 3f 6d 20 2c 3f eb 61 c3 bd 77 9a 27 3e
       1.2289636 0.6723698 -0.09540161 0.16367517
000160 a0 d5 85 3f 54 65 bd bf f5 3b ad 3e d3 bf 14 3f
       1.0455818 -1.4796548 0.33834806 0.581052
000170 9b 9b 99 3f 97 43 83 3f 28 24 cf 3f 6e 3a 20 bf
       1.2000612 1.0255002 1.6182909 -0.62589157
000180 5b b1 ec be 45 1c 10 bf 8a 7d ff 3f a6 75 af 3f
       -0.4622906 -0.56293136 1.9960186 1.3707778
000190 94 5b 11 3f 5e d4 30 3f 14 ba 2d be 75 f5 0e bc
       0.5678036 0.69074047 -0.16965514 -0.008725514
0001a0 1c 7a 40 3f d5 31 85 bf 0b fc 24 3e 9b 63 38 3e
       0.75186324 -1.0405833 0.16111772 0.18006746
0001b0 c9 4a 9b 3f 0e da 92 3f 77 09 99 3f a9 53 78 bf
       1.2132198 1.1472795 1.1956013 -0.97002655
0001c0 56 7f 95 3e 89 7c 97 3e 2c e6 1b 3e 2f 89 22 be
       0.29198712 0.295872 0.15224522 -0.15872644
0001d0 07 6b 3b 3e 29 9c 99 3e b7 c0 1c 3e 0c 62 a9 3e
       0.18302546 0.30001953 0.1530789 0.33082616
0001e0 47 f8 15 3b e4 86 b7 be 9f ff 13 be 4d 44 a9 be
       0.002288358 -0.358451 -0.1445298 -0.33059922
0001f0 66 f2 cd 3d 8d 72 88 3e 87 5e 4d be 4a 8b eb bd
       0.100559995 0.26649895 -0.2005559 -0.11501177
000200 1f 31 3c bf b7 bb 1b bf 9b 22 d8 3f 68 80 7e 3f
       -0.7351245 -0.60833305 1.6885561 0.9941468
000210 db c6 76 3f 18 7b b5 3e 6b c3 e7 3e 25 d9 d5 3e
       0.9639718 0.35445476 0.4526628 0.4176723
000220 0b d6 1e 3f e1 29 84 bf a0 07 af 3d de a4 c6 3e
       0.62045354 -1.032528 0.08546376 0.3879766
000230 df 74 b3 3f 49 16 81 3f 61 b1 51 3f 8e 73 35 bf
       1.4020041 1.0084926 0.81911284 -0.7087945
000240 13 4a c0 3e 3b 05 7f be 81 ac 80 3d 38 0c c3 bd
       0.37556514 -0.24904339 0.062829025 -0.09523815
000250 5c cd 58 3e 4d 68 85 3e 3e d7 b9 be d5 39 61 3e
       0.21172088 0.26056138 -0.3629703 0.21994717
000260 c6 02 80 be 0f 8d b5 3e fc 3b a2 3e 1d a1 91 be
       -0.25002116 0.35459182 0.3168639 -0.28443232
000270 49 7e ed bd 44 25 46 3e a3 a3 41 3d a9 9c 53 be
       -0.115963526 0.19350153 0.047275197 -0.2066523
000280 5b da 0e be a4 f2 88 be 12 cc bb 3f 2e 67 5f 3f
       -0.13950484 -0.2674762 1.4671652 0.87266815
000290 13 e7 41 3f 69 cd ca 3e 82 66 b9 3e 0f 9c 9c 3e
       0.75743216 0.3960984 0.3621102 0.30587813
0002a0 b3 d3 7d 3e a9 d9 8a bf e7 04 f3 3e d3 12 ba 3e
       0.24787788 -1.0847675 0.47464678 0.36342487
0002b0 ce b1 23 3f ff ce 98 3f 2d 45 40 3f 2e ac 47 bf
       0.63943183 1.193817 0.75105554 -0.779971
0002c0 5b 51 8d be 41 5f b4 be 78 47 bd 3e e1 8d c3 3d
       -0.27601132 -0.35228923 0.3696859 0.09548546
0002d0 c3 25 c1 be b8 47 a3 be 50 db 7b be 36 54 6e bc
       -0.37724122 -0.31890655 -0.2459538 -0.014546445
0002e0 3a 3c 98 ba 6b 3c 79 be 61 21 cc be 55 53 25 be
       -0.0011614629 -0.24339454 -0.39869216 -0.1614507
0002f0 66 c4 a0 be 83 c4 36 be d4 15 36 3e 00 dc 02 3e
       -0.3139984 -0.17848401 0.17781764 0.12779236
000300 c3 d0 f5 be 32 25 1c bf 19 fb a2 3f 7d cc 68 3f
       -0.48010835 -0.60994256 1.2732879 0.90937024
000310 1b 09 4f 3f 19 74 b1 3e 03 df ec 3d 66 2c a8 3e
       0.8087327 0.34658888 0.115659736 0.32846373
000320 a6 0e a0 3e ed 7a 5b bf 51 bc f0 3e c8 91 f8 3e
       0.31261176 -0.85734445 0.47018674 0.48548722
000330 ba 47 7d 3f 4d 24 58 3f d1 30 90 3f 2d af d3 be
       0.9893757 0.8443039 1.1264898 -0.41344586
000340 a1 31 dd 3d 5f 8d 8a 3e bf c1 a4 bd 89 c5 aa 3e
       0.108004816 0.27060983 -0.08044767 0.33353832
000350 fa 7b 5d bd 07 df f4 bd df bf 8b 3e 97 03 48 be
       -0.05407331 -0.119566016 0.27294824 -0.1953262
000360 c8 69 00 3e 72 f2 59 be 73 bf 75 bb ec 29 ea be
       0.12540352 -0.21283892 -0.0037498146 -0.4573511
000370 65 36 bc be 2c 31 9d 3e 6a 97 e4 3c e5 35 29 3e
       -0.3676025 0.30701578 0.027904231 0.16524465
000380 81 1e d8 3e a7 0b 87 be 70 1a 76 be 07 0a 7d 3e
       0.42210773 -0.26376078 -0.24033523 0.24710856
000390 59 ef ea be 53 ed 88 3e ab 4c 10 be 18 28 e3 3b
       -0.45885733 0.26743564 -0.14091747 0.00693227
0003a0 6e cc d9 be f5 6d 63 3e fd d9 c4 bd c8 0d 27 3e
       -0.4253878 0.22209914 -0.096118905 0.16313851
0003b0 ef 7f b4 be 65 a3 c3 3e bf b5 44 be 9d 9c 4b 3d
       -0.35253856 0.38210598 -0.19209956 0.049709905
0003c0 2b 49 a8 3d 31 b0 00 3e c8 0e 90 be 53 fa b8 3d
       0.08217081 0.12567212 -0.28136277 0.090321206
0003d0 2f b8 d2 bd b4 0d 83 be 95 71 ca bd cb 2e 28 3d
       -0.102890365 -0.25596392 -0.09884945 0.04106025
0003e0 2e 69 c9 bd 30 b0 24 bd ef c0 fc 3d ee 2e 2a bd
       -0.098345146 -0.040207088 0.12341487 -0.041548662
0003f0 33 96 ff 3d e7 dc 96 3e 39 9a 7f 3e 64 26 cc be
       0.1247982 0.2946541 0.24961175 -0.3987304

arith.constant14 f4 [16]
000000 6b 45 c9 bc a3 96 d8 3c 15 43 cd 3d 5a 15 f5 bd
       -0.024569234 0.026439017 0.100225605 -0.11966963
000010 3c 34 2a 3c f9 a4 02 3d 68 07 66 3d ff 56 17 bd
       0.01038843 0.03189561 0.056159407 -0.0369482
000020 bf 49 b7 ba 21 5b 4a bd 54 0c 14 3d 8e 85 3b bc
       -0.001398377 -0.049403314 0.03614457 -0.011445416
000030 0c 0f b9 3c 11 8d 1d bd 18 b1 0a be a7 66 8e bc
       0.022590183 -0.03846461 -0.13544118 -0.017382933

tfl.pseudo_qconst i1 [10000, 16] scale=0.027245628 zero_point=0
000000 f8 ff 02 04 04 0a 06 f9 03 05 04 0c 03 00 ff fb
       -0.21796502 -0.027245628 0.054491255 0.10898251 0.10898251 0.2724563 0.16347377 -0.1907194 0.081736885 0.13622814 0.10898251 0.32694754 0.081736885 0.0 -0.027245628 -0.13622814
000010 16 08 e3 e6 e6 ee f6 eb e6 1d f5 ea e5 e9 e8 18
       0.5994038 0.21796502 -0.7901232 -0.7083863 -0.7083863 -0.4904213 -0.2724563 -0.57215816 -0.7083863 0.7901232 -0.2997019 -0.5994038 -0.73563194 -0.62664944 -0.6538951 0.6538951
000020 40 36 a8 b2 b2 de 09 b9 b3 59 d2 b8 b1 b7 b0 4f
       1.7437202 1.4712639 -2.3976152 -2.125159 -2.125159 -0.92635137 0.24521065 -1.9344395 -2.0979133 2.424861 -1.2532989 -1.9616852 -2.1524045 -1.9889308 -2.1796503 2.1524045
000030 c7 e9 43 3c 3e 2f 10 28 39 bf 1c 38 3e 38 39 c5
       -1.5530008 -0.62664944 1.8254571 1.6347376 1.6892289 1.2805445 0.43593004 1.0898252 1.5530008 -1.7709658 0.7628776 1.5257552 1.6892289 1.5257552 1.5530008 -1.6074921
000040 cc dc 35 30 33 2e 08 24 32 d3 29 29 31 31 28 d1
       -1.4167726 -0.9808426 1.4440182 1.3077902 1.389527 1.2532989 0.21796502 0.9808426 1.3622814 -1.2260532 1.1170708 1.1170708 1.3350358 1.3350358 1.0898252 -1.2805445
000050 e3 f4 1e 19 20 1a 0a 13 1d e3 0f 19 1b 1c 17 e8
       -0.7901232 -0.32694754 0.8173688 0.6811407 0.8718601 0.7083863 0.2724563 0.51766694 0.7901232 -0.7901232 0.4086844 0.6811407 0.73563194 0.7628776 0.62664944 -0.6538951
000060 49 39 a5 ae ae c7 fa bd af 56 ca b6 ae b2 b1 51
       1.9889308 1.5530008 -2.4793522 -2.2341416 -2.2341416 -1.5530008 -0.16347377 -1.8254571 -2.2068958 2.343124 -1.4712639 -2.0161765 -2.2341416 -2.125159 -2.1524045 2.2068958
000070 00 09 fd fe 00 05 07 fb fc ff f6 fe fe fc ff 00
       0.0 0.24521065 -0.081736885 -0.054491255 0.0 0.13622814 0.1907194 -0.13622814 -0.10898251 -0.027245628 -0.2724563 -0.054491255 -0.054491255 -0.10898251 -0.027245628 0.0
000080 23 13 d5 d9 d9 e7 f8 e0 d9 2e eb dc d6 dd d8 29
       0.95359695 0.51766694 -1.171562 -1.0625795 -1.0625795 -0.6811407 -0.21796502 -0.8718601 -1.0625795 1.2532989 -0.57215816 -0.9808426 -1.1443163 -0.95359695 -1.0898252 1.1170708
000090 04 02 ee ee f7 0e 07 f2 f6 1a 08 f2 f2 f6 eb 0f
       0.10898251 0.054491255 -0.4904213 -0.4904213 -0.24521065 0.3814388 0.1907194 -0.3814388 -0.2724563 0.7083863 0.21796502 -0.3814388 -0.3814388 -0.2724563 -0.57215816 0.4086844
0000a0 e9 ee 17 12 17 17 05 0b 15 f2 16 0f 12 15 0e ef
       -0.62664944 -0.4904213 0.62664944 0.4904213 0.62664944 0.62664944 0.13622814 0.2997019 0.57215816 -0.3814388 0.5994038 0.4086844 0.4904213 0.57215816 0.3814388 -0.46317568
0000b0 39 30 b9 bf bf da 00 c8 bf 48 d2 c4 bd c2 be 3f
       1.5530008 1.3077902 -1.9344395 -1.7709658 -1.7709658 -1.0353339 0.0 -1.5257552 -1.7709658 1.9616852 -1.2532989 -1.6347376 -1.8254571 -1.6892289 -1.7982115 1.7164745
0000c0 2a 2d ca d0 cf e6 04 d1 cd 32 d4 d5 cd d2 cf 2e
       1.1443163 1.2260532 -1.4712639 -1.3077902 -1.3350358 -0.7083863 0.10898251 -1.2805445 -1.389527 1.3622814 -1.1988076 -1.171562 -1.389527 -1.2532989 -1.3350358 1.2532989
0000d0 ba d9 59 4a 53 37 0e 37 49 ad 2c 45 4d 4c 46 b5
       -1.9071939 -1.0625795 2.424861 2.0161765 2.261387 1.4985095 0.3814388 1.4985095 1.9889308 -2.261387 1.1988076 1.8799483 2.0979133 2.0706677 1.9071939 -2.043422
0000e0 28 24 c4 c9 cf f3 0d ce cc 3f e5 ce cb d2 c6 35
       1.0898252 0.9808426 -1.6347376 -1.4985095 -1.3350358 -0.35419315 0.35419315 -1.3622814 -1.4167726 1.7164745 -0.73563194 -1.3622814 -1.4440182 -1.2532989 -1.5802464 1.4440182
0000f0 e7 f1 28 26 21 07 fa 1e 20 d4 0c 20 23 1e 25 db
       -0.6811407 -0.4086844 1.0898252 1.0353339 0.8991057 0.1907194 -0.16347377 0.8173688 0.8718601 -1.1988076 0.32694754 0.8718601 0.95359695 0.8173688 1.0080882 -1.0080882
