app/src/main/assets/sms_classifier.tflite (tflite, 164176 bytes, 4 tensors)

arith.constant f4 [16]
00000000: 2ada 2e3d 122c 1abd f233 0b3d 3c77 cc3c
00000010: 0000 0000 bb07 9a3c 0000 0000 236e f4bc
00000020: c003 7a3d ad84 6cbc 08f1 c23c 88c7 c4bb
00000030: fadf c5bb b249 573c 38fc 1f3c f1e1 463d
0.042688526 -0.037639685 0.033985086 0.0249592 0.0 0.018802514 0.0 -0.029837674
0.061038733 -0.014435929 0.023796573 -0.0060052313 -0.006038663 0.013140129 0.0097647235 0.04855532

arith.constant3 f4 [1, 16]
00000000: 2da9 86bf 0981 0e3f c09b 87bf eb09 bdbf
00000010: 807b 34bc 5478 b0bf 6975 9dbe 225e 963e
00000020: 189c ef3f b969 543e 19da 94bf 0156 8b3e
00000030: 1872 103f b21d 8dbf 5d96 9cbd be10 e03f
-1.0520378 0.5566564 -1.0594406 -1.4768652 -0.011015773 -1.3786721 -0.3075364 0.29368693
1.8719511 0.20743455 -1.1629058 0.27214053 0.56424093 -1.1024687 -0.07645867 1.7505109

arith.constant4 f4 [16, 16]
00000000: 6373 c53f 4055 02bf 1761 a1be fbc7 05be
00000010: 6978 c2bd 89a8 fabe d15a e0bf b6b2 fe3e
00000020: ebbc 633f 8062 b73e 7bbf ee3e 9a5b 4abf
00000030: b47a 44bf 7c97 ae3f 7030 d4bf 6065 433f
00000040: 99d2 ac3e 8379 0d3e c5d9 d33d e7d7 c2be
00000050: c71a e53e d48e 2b3e ebed a1be 74ce cbbe
00000060: 27d5 9ebe 6618 273e 34e0 c03d 29d0 b03d
00000070: b150 833e 0021 6c3e 14e7 4c3e 0282 123e
00000080: d4b0 b43f 34bb 1abf add3 5dbe f8b5 90be
00000090: 4b7c 8ebe 8d1f 59bf b936 02c0 a781 343f
000000a0: e79b 983f b827 df3e 681d 7a3f 69b2 5bbf
000000b0: b929 f8be 903a de3f a70a d0bf cfb2 853f
000000c0: 403d bc3f 3520 e2be ba16 30bf 1cdd 46bf
000000d0: 5e0a 4a3e ce95 19bf 2d9c aebf 23a5 8b3e
000000e0: a8b0 243f bf97 013e 0b71 183f 2ee4 0ebf
000000f0: a35b d7be ee49 7a3f e17e 89bf 6169 fa3e
00000100: b312 b83e f94b 983e 8fa7 cf3e 4604 78be
00000110: aa84 713e 723f 4c3e 72bc 5e3e 39b4 9f3e
00000120: c850 69bd 9cba e6bd 063d 193e 18fe 23bd
00000130: bfa9 d83e fcce b63d e6b6 c1be d038 a63c
00000140: f9f7 893f dec7 2ebf 480c 18bf f1e2 b3be
00000150: 8d57 66be a8ba 07bf 090f c9bf 5926 153f
00000160: 2820 0d3f bcd7 20be 036b 3b3f 4163 6ebf
00000170: 28ac b5be d3ef 913f 0595 a2bf 5907 163f
00000180: 1f09 a63e f9c8 d03e 825e 2c3e 506d 0f3d
00000190: d2b7 3cbe 55b0 8e3e b88e fabd 63ec c53e
000001a0: 502b bfbe 32f3 083e 93d8 c0be 1dbb c43e
000001b0: 4593 b33e e2cb 07be b573 983e b8e8 383d
000001c0: bea9 883e 999f a73e 248f d7bd 4b25 483e
000001d0: 79c9 ae3e d794 5bbe 8765 073e 9608 b9bc
000001e0: 152a a93e c786 1f3d 23da 79be f7e0 8abe
000001f0: 2030 4dbe a42c 943e f45e 9ebe 19a5 edbe
00000200: ac38 a3bf 9c60 c23e bdcf b63e 1a75 293f
00000210: 658a 48be dc71 203f 77cf ca3f a830 66bf
00000220: dc1c 3cbf a284 583e 8387 36be a831 9d3f
00000230: a6b0 153f 7d38 8dbf 7019 bd3f 3dd3 55bf
00000240: 9bb1 b8be 51e0 653e 9a57 9c3e 00fe 51bd
00000250: c2ff 493d 42ca 56be 71fa 14be 4de4 9b3e
00000260: f9c9 aa3e 1c40 9cbe 3c92 06be 7347 343e
00000270: d492 63be 3a1d 933e e8a0 d5be de09 6d3d
00000280: 9f4f 0140 a4ae 52bf 6d8b 80be 6072 9abd
00000290: 0008 84be 3a0d 95bf 912e d0bf 089b 013f
000002a0: 3907 473f 8690 2cbe 6c11 db3e 05e3 08bf
000002b0: e5e2 a1be b682 d03f 5042 efbf efb4 7f3f
000002c0: d69b f7bd 6dcd 923e 2f34 aebd 7c02 c4be
000002d0: f204 e43d ed5f 833c 6e53 5cbe b24a e73c
000002e0: 4c9b 493e 2507 7dbe 3cd6 fc3d 5dae aa3e
000002f0: a325 9f3d 66e7 dbbe c5ac c1be c0d6 6cbe
00000300: b26e 593e 473f 513e c21c 1dbe 2149 8abe
00000310: dc72 693e 94d7 10bd 61a3 aabe c74a 943e
00000320: 27b4 073e 9625 04be 4428 243e 8122 aa3e
00000330: 7d71 55be 042a d2be e2b6 4e3e 5830 8bbe
00000340: c155 ca3f 0ec7 01bf b2a9 1cbf 5f64 14bf
00000350: 37c6 46bd 1eca 1bbf ab98 b4bf dcac 2f3f
00000360: 2346 263f e8b9 163e 2ae1 333f dbbc 3ebf
00000370: 27b8 38bf 2461 be3f 6f4b 90bf 8d3c 4d3f
00000380: 6132 96bd 8eda 243e 4ad6 983d b749 0dbe
00000390: 03d5 c93e 7cab d3be 60c7 333e e007 5ebe
000003a0: 4c8e 8e3d 20f8 88be 81d1 b73d 9017 933e
000003b0: 5bfc 8c3e 1232 953e 423d aabc ee07 ffbd
000003c0: 3569 ecbf e1e0 21bd a947 44bb 32fa 103f
000003d0: 0f79 9c3e 1ffd a73f dbad af3f 6feb 3dbf
000003e0: d93a 83bf 4753 99be 02a7 aebe d7a8 383f
000003f0: e157 9f3e e629 c9bf 91d6 e93f 1099 21bf
1.5425838 -0.5091133 -0.31519386 -0.13064568 -0.09495623 -0.48956707 -1.7527715 0.4974572
0.8896014 0.35817337 0.46630463 -0.7904602 -0.7674973 1.3639979 -1.6577282 0.7632656
0.33754423 0.13815884 0.103442706 -0.38055345 0.44746992 0.16753703 -0.3162683 -0.3980595
-0.31021997 0.16317901 0.09417763 0.086334534 0.256475 0.23059464 0.20010024 0.14307407
1.4116464 -0.604419 -0.21662779 -0.2826383 -0.27829203 -0.8481377 -2.03459 0.70510334
1.1922578 0.4358499 0.9770112 -0.8581911 -0.48469332 1.7361622 -1.6253251 1.0445193
1.4706192 -0.44165197 -0.6878468 -0.77681136 0.19730517 -0.5999421 -1.3641411 0.27274427
0.64332056 0.12655543 0.5954749 -0.55816925 -0.420621 0.9776906 -1.0741845 0.48908523
0.35951766 0.29745463 0.40557525 -0.2422038 0.23585764 0.19946077 0.21751574 0.31192186
-0.056961805 -0.11266062 0.14964685 -0.040037245 0.42317006 0.08926198 -0.37834853 0.020290762
1.07788 -0.68273723 -0.5939374 -0.3513408 -0.22494335 -0.5301919 -1.5707713 0.5826164
0.5512719 -0.15707296 0.7321016 -0.931202 -0.35482907 1.1401314 -1.2701727 0.5860496
0.32428834 0.4077833 0.16832927 0.035016358 -0.18429497 0.27868906 -0.12234253 0.3865691
-0.37337732 0.13374022 -0.37665233 0.38424006 0.35073295 -0.13261369 0.29775777 0.045143813
0.26692003 0.3273895 -0.10525349 0.19545476 0.34138086 -0.21443497 0.13222323 -0.022587102
0.3303992 0.038946893 -0.24399619 -0.2712476 -0.2003789 0.28940308 -0.30931818 -0.46415022
-1.275167 0.37964332 0.35705367 0.6619431 -0.19584043 0.62673736 1.5844563 -0.89917994
-0.73481536 0.21144345 -0.17825131 1.2280779 0.5847267 -1.1032864 1.4773388 -0.8352545
-0.36073002 0.22448851 0.30535585 -0.051267624 0.049316175 -0.20975593 -0.14548661 0.30447617
0.33357218 -0.30517662 -0.13141721 0.1760538 -0.22223979 0.28733236 -0.41724324 0.05787074
2.0204847 -0.8229773 -0.25106373 -0.075413465 -0.25787354 -1.1644661 -1.6264211 0.50627184
0.77745396 -0.16852006 0.4278673 -0.53471404 -0.3161842 1.628989 -1.8692112 0.9988546
-0.1209027 0.28672352 -0.08506047 -0.38283145 0.11133756 0.016036952 -0.21516201 0.02823386
0.19688147 -0.24709757 0.123455495 0.33336154 0.077708505 -0.4294998 -0.37827125 -0.23128796
0.21233633 0.20434295 -0.15343001 -0.27008918 0.22797722 -0.03536184 -0.33327773 0.289633
0.13252316 -0.12904963 0.16030985 0.3322945 -0.20844074 -0.4104768 0.20186952 -0.2718532
1.580742 -0.5069436 -0.61196434 -0.57965654 -0.048528876 -0.6085528 -1.410909 0.6862314
0.6495077 0.14719355 0.7026545 -0.7450692 -0.72155994 1.4873395 -1.127302 0.8017052
-0.07333828 0.16098997 0.074627474 -0.13797651 0.39420328 -0.4134177 0.17556524 -0.21682692
0.06960735 -0.26751804 0.089755066 0.28728914 0.27536282 0.29139763 -0.020781163 -0.12452684
-1.8469607 -0.0395211 -0.002994994 0.5663177 0.3056111 1.3124121 1.3724931 -0.7418737
-1.0252334 -0.29946348 -0.34111792 0.7213263 0.31121734 -1.5715911 1.8268605 -0.6312418

tfl.pseudo_qconst i1 [10000, 16] scale=0.025313681 zero_point=0
00000000: 00f6 f803 fd01 00f8 0206 0902 f902 ff05
00000010: e519 120d 0411 1fe7 f6f9 e616 18e2 1ae5
00000020: ae42 393c 0649 5aad c7f0 bd51 4dab 56af
00000030: 3dc6 cddb f9d1 bd36 210f 3dc9 c542 c13f
00000040: 38ca d0da ecce ca2e 2f14 38cf cf37 cb32
00000050: 1de5 e7ee fbeb e317 1009 1fea e71f e31a
00000060: ab4e 443e 124a 5ab0 c1e9 b051 4eaa 54ab
00000070: fffb fd06 0404 fe00 f901 ffff 0000 fe02
00000080: d924 1f1a 0321 2fd8 e7f7 de28 26d4 2ad6
00000090: f301 fd07 f20a 12ef 0707 000e 0af2 12f3
000000a0: 16e8 eaf1 efed ed0e 1910 1af2 ee13 ed11
000000b0: be39 3433 0c3e 46c0 c9eb c540 3ebb 44bd
000000c0: ca2c 292a 1333 35d0 ceeb d231 2fcd 35d0
000000d0: 4bb6 c1cb f8c2 ab45 3115 4bb7 b852 ae4d
000000e0: c827 202d fe32 3ac5 dbfd db38 30ca 3ac8
000000f0: 20ea edec 04e8 de1e 0d08 17e1 e122 df1f
0.0 -0.2531368 -0.20250945 0.07594104 -0.07594104 0.025313681 0.0 -0.20250945
0.050627362 0.15188208 0.22782312 0.050627362 -0.17719577 0.050627362 -0.025313681 0.1265684
-0.6834694 0.632842 0.45564625 0.32907784 0.101254724 0.43033257 0.7847241 -0.632842
-0.2531368 -0.17719577 -0.6581557 0.556901 0.6075283 -0.75941044 0.6581557 -0.6834694
-2.0757217 1.6707029 1.4428798 1.5188209 0.15188208 1.8478987 2.2782314 -2.1010356
-1.4428798 -0.4050189 -1.6960167 2.0504081 1.9491534 -2.1516628 2.1769767 -2.0504081
1.5441345 -1.4681935 -1.2909977 -0.93660617 -0.17719577 -1.189743 -1.6960167 1.3669388
0.83535147 0.37970522 1.5441345 -1.3922524 -1.4935071 1.6707029 -1.5947618 1.5947618
1.4175662 -1.3669388 -1.2150567 -0.9619199 -0.5062736 -1.265684 -1.3669388 1.1644293
1.189743 0.5062736 1.4175662 -1.2403704 -1.2403704 1.3922524 -1.3416251 1.265684
0.73409677 -0.6834694 -0.632842 -0.45564625 -0.1265684 -0.5315873 -0.73409677 0.58221465
0.4050189 0.22782312 0.7847241 -0.556901 -0.632842 0.7847241 -0.73409677 0.6581557
-2.1516628 1.9744672 1.7213303 1.5694482 0.45564625 1.8732123 2.2782314 -2.0250945
-1.5947618 -0.58221465 -2.0250945 2.0504081 1.9744672 -2.1769767 2.1263492 -2.1516628
-0.025313681 -0.1265684 -0.07594104 0.15188208 0.101254724 0.101254724 -0.050627362 0.0
-0.17719577 0.025313681 -0.025313681 -0.025313681 0.0 0.0 -0.050627362 0.050627362
-0.9872336 0.9112925 0.7847241 0.6581557 0.07594104 0.83535147 1.189743 -1.0125473
-0.632842 -0.22782312 -0.86066514 1.0125473 0.9619199 -1.113802 1.0631746 -1.0631746
-0.32907784 0.025313681 -0.07594104 0.17719577 -0.35439155 0.2531368 0.45564625 -0.43033257
0.17719577 0.17719577 0.0 0.35439155 0.2531368 -0.35439155 0.45564625 -0.32907784
0.556901 -0.6075283 -0.556901 -0.37970522 -0.43033257 -0.48095995 -0.48095995 0.35439155
0.632842 0.4050189 0.6581557 -0.35439155 -0.45564625 0.48095995 -0.48095995 0.43033257
-1.6707029 1.4428798 1.3163114 1.2909977 0.30376416 1.5694482 1.7719576 -1.6200756
-1.3922524 -0.5315873 -1.4935071 1.6200756 1.5694482 -1.746644 1.7213303 -1.6960167
-1.3669388 1.113802 1.0378609 1.0631746 0.48095995 1.2909977 1.3416251 -1.2150567
-1.265684 -0.5315873 -1.1644293 1.2403704 1.189743 -1.2909977 1.3416251 -1.2150567
1.8985261 -1.8732123 -1.5947618 -1.3416251 -0.20250945 -1.5694482 -2.1516628 1.746644
1.2403704 0.5315873 1.8985261 -1.8478987 -1.822585 2.0757217 -2.0757217 1.9491534
-1.4175662 0.9872336 0.8100378 1.1391157 -0.050627362 1.265684 1.4681935 -1.4935071
-0.93660617 -0.07594104 -0.93660617 1.4175662 1.2150567 -1.3669388 1.4681935 -1.4175662
0.8100378 -0.556901 -0.48095995 -0.5062736 0.101254724 -0.6075283 -0.86066514 0.75941044
0.32907784 0.20250945 0.58221465 -0.7847241 -0.7847241 0.86066514 -0.83535147 0.7847241
